…
Layer (type)                    Output Shape         Param #     Connected to                     
==================================================================================================
x (InputLayer)                  [(None, 1)]          0                                            
__________________________________________________________________________________________________
y (InputLayer)                  [(None, 1)]          0                                            
__________________________________________________________________________________________________
concat_5 (Concatenate)          (None, 2)            0           x[0][0]                          
                                                                 y[0][0]                          
__________________________________________________________________________________________________
D100b_25 (Dense)                (None, 100)          300         concat_5[0][0]                   
__________________________________________________________________________________________________
concat_4 (Concatenate)          (None, 2)            0           x[0][0]                          
                                                                 y[0][0]                          
__________________________________________________________________________________________________
sci_activation_28 (SciActivatio (None, 100)          0           D100b_25[0][0]                   
__________________________________________________________________________________________________
D100b_19 (Dense)                (None, 100)          300         concat_4[0][0]                   
__________________________________________________________________________________________________
concat (Concatenate)            (None, 2)            0           x[0][0]                          
                                                                 y[0][0]                          
__________________________________________________________________________________________________
concat_2 (Concatenate)          (None, 2)            0           x[0][0]                          
                                                                 y[0][0]                          
__________________________________________________________________________________________________
D100b_26 (Dense)                (None, 100)          10100       sci_activation_28[0][0]          
__________________________________________________________________________________________________
sci_activation_21 (SciActivatio (None, 100)          0           D100b_19[0][0]                   
__________________________________________________________________________________________________
concat_3 (Concatenate)          (None, 2)            0           x[0][0]                          
                                                                 y[0][0]                          
__________________________________________________________________________________________________
D100b (Dense)                   (None, 100)          300         concat[0][0]                     
__________________________________________________________________________________________________
D100b_7 (Dense)                 (None, 100)          300         concat_2[0][0]                   
__________________________________________________________________________________________________
sci_activation_29 (SciActivatio (None, 100)          0           D100b_26[0][0]                   
__________________________________________________________________________________________________
D100b_20 (Dense)                (None, 100)          10100       sci_activation_21[0][0]          
__________________________________________________________________________________________________
D100b_13 (Dense)                (None, 100)          300         concat_3[0][0]                   
__________________________________________________________________________________________________
sci_activation (SciActivation)  (None, 100)          0           D100b[0][0]                      
__________________________________________________________________________________________________
sci_activation_7 (SciActivation (None, 100)          0           D100b_7[0][0]                    
__________________________________________________________________________________________________
D100b_27 (Dense)                (None, 100)          10100       sci_activation_29[0][0]          
__________________________________________________________________________________________________
sci_activation_22 (SciActivatio (None, 100)          0           D100b_20[0][0]                   
__________________________________________________________________________________________________
sci_activation_14 (SciActivatio (None, 100)          0           D100b_13[0][0]                   
__________________________________________________________________________________________________
D100b_2 (Dense)                 (None, 100)          10100       sci_activation[0][0]             
__________________________________________________________________________________________________
D100b_8 (Dense)                 (None, 100)          10100       sci_activation_7[0][0]           
__________________________________________________________________________________________________
sci_activation_30 (SciActivatio (None, 100)          0           D100b_27[0][0]                   
__________________________________________________________________________________________________
D100b_21 (Dense)                (None, 100)          10100       sci_activation_22[0][0]          
__________________________________________________________________________________________________
D100b_14 (Dense)                (None, 100)          10100       sci_activation_14[0][0]          
__________________________________________________________________________________________________
sci_activation_1 (SciActivation (None, 100)          0           D100b_2[0][0]                    
__________________________________________________________________________________________________
sci_activation_8 (SciActivation (None, 100)          0           D100b_8[0][0]                    
__________________________________________________________________________________________________
D100b_28 (Dense)                (None, 100)          10100       sci_activation_30[0][0]          
__________________________________________________________________________________________________
sci_activation_23 (SciActivatio (None, 100)          0           D100b_21[0][0]                   
__________________________________________________________________________________________________
sci_activation_15 (SciActivatio (None, 100)          0           D100b_14[0][0]                   
__________________________________________________________________________________________________
D100b_3 (Dense)                 (None, 100)          10100       sci_activation_1[0][0]           
__________________________________________________________________________________________________
D100b_9 (Dense)                 (None, 100)          10100       sci_activation_8[0][0]           
__________________________________________________________________________________________________
sci_activation_31 (SciActivatio (None, 100)          0           D100b_28[0][0]                   
__________________________________________________________________________________________________
D100b_22 (Dense)                (None, 100)          10100       sci_activation_23[0][0]          
__________________________________________________________________________________________________
D100b_15 (Dense)                (None, 100)          10100       sci_activation_15[0][0]          
__________________________________________________________________________________________________
sci_activation_2 (SciActivation (None, 100)          0           D100b_3[0][0]                    
__________________________________________________________________________________________________
sci_activation_9 (SciActivation (None, 100)          0           D100b_9[0][0]                    
__________________________________________________________________________________________________
D100b_29 (Dense)                (None, 100)          10100       sci_activation_31[0][0]          
__________________________________________________________________________________________________
sci_activation_24 (SciActivatio (None, 100)          0           D100b_22[0][0]                   
__________________________________________________________________________________________________
sci_activation_16 (SciActivatio (None, 100)          0           D100b_15[0][0]                   
__________________________________________________________________________________________________
D100b_4 (Dense)                 (None, 100)          10100       sci_activation_2[0][0]           
__________________________________________________________________________________________________
D100b_10 (Dense)                (None, 100)          10100       sci_activation_9[0][0]           
__________________________________________________________________________________________________
sci_activation_32 (SciActivatio (None, 100)          0           D100b_29[0][0]                   
__________________________________________________________________________________________________
D100b_23 (Dense)                (None, 100)          10100       sci_activation_24[0][0]          
__________________________________________________________________________________________________
D100b_16 (Dense)                (None, 100)          10100       sci_activation_16[0][0]          
__________________________________________________________________________________________________
sci_activation_3 (SciActivation (None, 100)          0           D100b_4[0][0]                    
__________________________________________________________________________________________________
sci_activation_10 (SciActivatio (None, 100)          0           D100b_10[0][0]                   
__________________________________________________________________________________________________
D100b_30 (Dense)                (None, 100)          10100       sci_activation_32[0][0]          
__________________________________________________________________________________________________
sci_activation_25 (SciActivatio (None, 100)          0           D100b_23[0][0]                   
__________________________________________________________________________________________________
sci_activation_17 (SciActivatio (None, 100)          0           D100b_16[0][0]                   
__________________________________________________________________________________________________
D100b_5 (Dense)                 (None, 100)          10100       sci_activation_3[0][0]           
__________________________________________________________________________________________________
D100b_11 (Dense)                (None, 100)          10100       sci_activation_10[0][0]          
__________________________________________________________________________________________________
sci_activation_33 (SciActivatio (None, 100)          0           D100b_30[0][0]                   
__________________________________________________________________________________________________
D100b_24 (Dense)                (None, 100)          10100       sci_activation_25[0][0]          
__________________________________________________________________________________________________
D100b_17 (Dense)                (None, 100)          10100       sci_activation_17[0][0]          
__________________________________________________________________________________________________
sci_activation_4 (SciActivation (None, 100)          0           D100b_5[0][0]                    
__________________________________________________________________________________________________
sci_activation_11 (SciActivatio (None, 100)          0           D100b_11[0][0]                   
__________________________________________________________________________________________________
lame2 (Field)                   (None, 1)            101         sci_activation_33[0][0]          
__________________________________________________________________________________________________
sci_activation_26 (SciActivatio (None, 100)          0           D100b_24[0][0]                   
__________________________________________________________________________________________________
sci_activation_18 (SciActivatio (None, 100)          0           D100b_17[0][0]                   
__________________________________________________________________________________________________
D100b_6 (Dense)                 (None, 100)          10100       sci_activation_4[0][0]           
__________________________________________________________________________________________________
D100b_12 (Dense)                (None, 100)          10100       sci_activation_11[0][0]          
__________________________________________________________________________________________________
mul (Lambda)                    (None, 1)            0           lame2[0][0]                      
__________________________________________________________________________________________________
lame1 (Field)                   (None, 1)            101         sci_activation_26[0][0]          
__________________________________________________________________________________________________
D100b_18 (Dense)                (None, 100)          10100       sci_activation_18[0][0]          
__________________________________________________________________________________________________
sci_activation_5 (SciActivation (None, 100)          0           D100b_6[0][0]                    
__________________________________________________________________________________________________
sci_activation_12 (SciActivatio (None, 100)          0           D100b_12[0][0]                   
__________________________________________________________________________________________________
Exx (InputLayer)                [(None, 1)]          0                                            
__________________________________________________________________________________________________
add (Lambda)                    (None, 1)            0           mul[0][0]                        
                                                                 lame1[0][0]                      
__________________________________________________________________________________________________
Eyy (InputLayer)                [(None, 1)]          0                                            
__________________________________________________________________________________________________
sci_activation_19 (SciActivatio (None, 100)          0           D100b_18[0][0]                   
__________________________________________________________________________________________________
Sxx (Field)                     (None, 1)            101         sci_activation_5[0][0]           
__________________________________________________________________________________________________
Syy (Field)                     (None, 1)            101         sci_activation_12[0][0]          
__________________________________________________________________________________________________
mul_3 (Lambda)                  (None, 1)            0           Exx[0][0]                        
                                                                 add[0][0]                        
__________________________________________________________________________________________________
mul_4 (Lambda)                  (None, 1)            0           Eyy[0][0]                        
                                                                 lame1[0][0]                      
__________________________________________________________________________________________________
mul_5 (Lambda)                  (None, 1)            0           Eyy[0][0]                        
                                                                 add[0][0]                        
__________________________________________________________________________________________________
mul_6 (Lambda)                  (None, 1)            0           Exx[0][0]                        
                                                                 lame1[0][0]                      
__________________________________________________________________________________________________
Sxy (Field)                     (None, 1)            101         sci_activation_19[0][0]          
__________________________________________________________________________________________________
Exy (InputLayer)                [(None, 1)]          0                                            
__________________________________________________________________________________________________
mul_2 (Lambda)                  (None, 1)            0           lame2[0][0]                      
__________________________________________________________________________________________________
add_2 (Lambda)                  (None, 1)            0           mul_3[0][0]                      
                                                                 mul_4[0][0]                      
__________________________________________________________________________________________________
add_3 (Lambda)                  (None, 1)            0           mul_5[0][0]                      
                                                                 mul_6[0][0]                      
__________________________________________________________________________________________________
mul_7 (Lambda)                  (None, 1)            0           Exy[0][0]                        
                                                                 mul_2[0][0]                      
__________________________________________________________________________________________________
Grad_ (Lambda)                  (None, 1)            0           Sxx[0][0]                        
__________________________________________________________________________________________________
Grad__2 (Lambda)                (None, 1)            0           Sxy[0][0]                        
__________________________________________________________________________________________________
Grad__3 (Lambda)                (None, 1)            0           Sxy[0][0]                        
__________________________________________________________________________________________________
Grad__4 (Lambda)                (None, 1)            0           Syy[0][0]                        
__________________________________________________________________________________________________
sub (Lambda)                    (None, 1)            0           Sxx[0][0]                        
                                                                 add_2[0][0]                      
__________________________________________________________________________________________________
sub_2 (Lambda)                  (None, 1)            0           Syy[0][0]                        
                                                                 add_3[0][0]                      
__________________________________________________________________________________________________
sub_3 (Lambda)                  (None, 1)            0           Sxy[0][0]                        
                                                                 mul_7[0][0]                      
__________________________________________________________________________________________________
add_4 (Lambda)                  (None, 1)            0           Grad_[0][0]                      
                                                                 Grad__2[0][0]                    
__________________________________________________________________________________________________
add_5 (Lambda)                  (None, 1)            0           Grad__3[0][0]                    
                                                                 Grad__4[0][0]                    
==================================================================================================
Total params: 254,505
Trainable params: 254,505
Non-trainable params: 0
__________________________________________________________________________________________________
